PyTorch/heartdisease/heartDisease.pth (torch, 16698 bytes, 6 tensors)

linear_relu_stack.0.weight f4 [100, 13]
0	0xbe3206f8	-0.17385471
1	0x3e69a9e4	0.22818714
2	0xbedfafd9	-0.4368885
3	0xbe87e078	-0.26538444
4	0xbeb75623	-0.35807905
5	0xbe4a4e2a	-0.1975638
6	0xbe520dbb	-0.2051305
7	0xbdc3f1ac	-0.095675796
8	0x3c68001e	0.014160184
9	0xbe115b1e	-0.14194915
10	0xbd92ac4e	-0.07161771
11	0xbddde7dd	-0.1083524
12	0xbeea00ed	-0.4570383
13	0xbd585181	-0.052812103
14	0x3b262754	0.0025353031
15	0xbdbde4f7	-0.09272187
16	0xbdac9199	-0.08426208
17	0x3c9583d4	0.018251337
18	0x3e225528	0.15852797
19	0xbe78d94a	-0.24301639
20	0xbcc1d18c	-0.02365949
21	0xbe837fbb	-0.25683388
22	0x3e8a9b4d	0.2707161
23	0xbe8ad1a9	-0.27113083
24	0x3cbbf045	0.022941718
25	0xbe899de7	-0.26878282
26	0xbeb81676	-0.35954636
27	0x3dab9b5d	0.083792426
28	0xbe3ec186	-0.18628511
29	0x3b1ac256	0.0023614368
30	0xbe0ba42c	-0.13636845
31	0xbdeeeb9c	-0.11666033
32	0xbd308be4	-0.04310216
33	0xbecb54da	-0.39713174
34	0x3c753046	0.014965123
35	0xbdc2edf5	-0.09518043
36	0x3e05b0f2	0.1305578
37	0xbddc89f8	-0.10768503
38	0xbd9359ce	-0.07194863
39	0x3e106dfd	0.14104457
40	0xbdf195f3	-0.11796179
41	0x3dda3eea	0.10656531
42	0xbea40ec8	-0.32042527
43	0xbf0fd62e	-0.5618619
44	0xbdc00dcb	-0.09377631
45	0xbeb4e082	-0.35327536
46	0xbe1fec4c	-0.15617484
47	0xbe917926	-0.2841274
48	0x3eab2e45	0.33433738
49	0xbe390190	-0.18067002
50	0x3efe4b87	0.49666998
51	0xbe97e1f3	-0.29664573
52	0x3d1421f9	0.03616521
53	0xbe70b9b0	-0.23508334
54	0xbb8c0e75	-0.0042741843
55	0xbeabb004	-0.33532727
56	0x3d2fc22f	0.042909797
57	0xbd79f766	-0.061026953
58	0xbeadf219	-0.33973768
59	0xbd87352d	-0.06601939
60	0x3e20f432	0.15718153
61	0x3bb32429	0.005466957
62	0xbc7d6425	-0.015465771
63	0x3e18f6f7	0.1493796
64	0xbd868678	-0.06568617
65	0x3e330b83	0.1748486
66	0x3d238bc9	0.03992823
67	0x3d9e3df1	0.07726658
68	0x3dde6be5	0.10860423
69	0x3e901246	0.28138942
70	0xbe067006	-0.13128671
71	0x3e79f0a5	0.24408205
72	0xbe1d7701	-0.15377428
73	0x3e5807f1	0.2109678
74	0x3e28044c	0.16407889
75	0xbe9cabda	-0.30599862
76	0xbea8166a	-0.328296
77	0xbf02abc7	-0.5104336
78	0xbf1cc558	-0.6123862
79	0x3e532b1e	0.20621917
80	0x3d668f17	0.056288805
81	0x3f0d11cd	0.55105287
82	0x3ebaf1d7	0.36512634
83	0xbeffda38	-0.49971175
84	0x3cd5122b	0.02600964
85	0xbf3a4773	-0.7276527
86	0xbd4465e8	-0.047948748
87	0x3f6d2434	0.92633367
88	0xbe005e21	-0.12535907
89	0xbf2fa461	-0.686102
90	0x3f725f06	0.94676244
91	0x3d9c3da7	0.07628947
92	0x3e022061	0.12707664
93	0xbf5560eb	-0.8335101
94	0xbece5c2b	-0.40304694
95	0x3f143039	0.5788608
96	0xbec6cc55	-0.38827768
97	0x3f28b615	0.65902835
98	0xbfb487ec	-1.410398
99	0x3ee67cbd	0.45017043
100	0xbfb51ad7	-1.4148816
101	0xbf8ec0e8	-1.115262
102	0x3eb965a6	0.36210364
103	0x3e3ecbef	0.18632482
104	0xbeb36f32	-0.35045773
105	0x3e943326	0.28945273
106	0xbedef011	-0.4354253
107	0xbf0073d5	-0.50176746
108	0xbf840ab8	-1.0315771
109	0x3f38ad15	0.721391
110	0xbedd379e	-0.43206495
111	0x3f7425be	0.9537009
112	0x3e7a77c1	0.24459745
113	0xbf3772b1	-0.7165938
114	0x3e377f04	0.17919546
115	0xc05b6ace	-3.4283938
116	0xbe8b51eb	-0.27210936
117	0xbeb17738	-0.3466127
118	0xbeb8b40c	-0.36074865
119	0xbd2a7bb8	-0.041621894
120	0x3cfe297a	0.031025637
121	0xbd74ec17	-0.059795465
122	0xbe600579	-0.21877088
123	0x3ddae406	0.10688023
124	0xbe335c2a	-0.17515627
125	0xbe71a0ad	-0.23596449
126	0x3e111ae6	0.14170417
127	0xbbeebea7	-0.007285911
128	0xbe3ef325	-0.1864744
129	0xbe00eee9	-0.12591137
130	0xbec7d353	-0.39028415
131	0xbeecce97	-0.46251366
132	0xbecd4eae	-0.4009909
133	0x3d02d65a	0.031942703
134	0xbe48e712	-0.19619396
135	0x3ea9f0dc	0.33191574
136	0xbd56c617	-0.052435007
137	0xbedab4a8	-0.42715955
138	0xbe3b7803	-0.183075
139	0x3c9f3e5c	0.019438915
140	0xbed65526	-0.41861838
141	0x3e978c57	0.29599258
142	0xbe862c25	-0.26205555
143	0xbb2c86ae	-0.0026325393
144	0x3eabd1ef	0.33558604
145	0x3f100717	0.5626082
146	0xbfa04707	-1.2521676
147	0xbf98b31c	-1.192966
148	0xbf261ac4	-0.6488459
149	0xbf41aee1	-0.7565747
150	0x3e52d8b3	0.20590477
151	0x3f1ff7b3	0.62487334
152	0xbe53073b	-0.20608227
153	0xbe80894c	-0.2510475
154	0xbfce4d14	-1.6117272
155	0xbda239ce	-0.079211816
156	0xbf430253	-0.7617542
157	0x3d7385a1	0.05945361
158	0x3e8c78ea	0.27436
159	0x3c65849e	0.014008669
160	0xbf47a09c	-0.77979445
161	0x3f1bc449	0.6084638
162	0xbf66d598	-0.9016967
163	0xbe338fb4	-0.17535287
164	0xbf53eaba	-0.8278004
165	0xbf39fa83	-0.72647876
166	0xbe818cc3	-0.25302705
167	0xbd2f0e21	-0.042738084
168	0xbd4a46d4	-0.049383953
169	0xbe81ca37	-0.2534959
170	0xbf0835f7	-0.53207344
171	0xbe7e3322	-0.24824193
172	0xbdaec2b2	-0.08533229
173	0x3e831216	0.25599736
174	0x3f49f75d	0.7889307
175	0x3ea45b85	0.32101074
176	0xbda6d17a	-0.08145423
177	0xbe9f1bc3	-0.31075868
178	0xbfa2d8d1	-1.2722417
179	0x3eeb4a0a	0.45954925
180	0x3f9e453e	1.2364881
181	0xbd207e98	-0.03918323
182	0xbea09ddc	-0.31370437
183	0x3c7b9681	0.015355707
184	0xbdfdb8e9	-0.123887844
185	0xbdadd2c6	-0.084874675
186	0xbe2d5d24	-0.16930062
187	0x3db3145e	0.08744119
188	0xbdf8e269	-0.12152559
189	0xbe767217	-0.2406696
190	0x3d30dbad	0.04317825
191	0xbef093d3	-0.4698778
192	0x3e5aeef8	0.21380222
193	0xbecd26ca	-0.40068656
194	0xbe0d9867	-0.13827668
195	0xbed2e216	-0.41188115
196	0xbe4273ae	-0.18989441
197	0x3e26c6fd	0.16286846
198	0xbf43fff6	-0.7656244
199	0xbf71511f	-0.94264406
200	0xbde315cd	-0.110881425
201	0xbf07b2a4	-0.5300696
202	0x3e89433a	0.26809102
203	0x3e4a55a1	0.19759227
204	0x3ee1680d	0.44024697
205	0xbd814480	-0.063118935
206	0xbea70e4a	-0.3262809
207	0xbf1678b3	-0.5877792
208	0xbde28e9d	-0.110623576
209	0xbe77a49c	-0.24183887
210	0xbf17e072	-0.5932685
211	0xbf0b697e	-0.54457843
212	0xbe14c56b	-0.14528434
213	0xbf0b03ba	-0.5430256
214	0xbfd75054	-1.6821389
215	0x3f00c440	0.50299454
216	0xbdf5959e	-0.11991428
217	0xbecc7091	-0.3992963
218	0x3e8465b7	0.25858852
219	0x3f8d723f	1.105049
220	0x3f0b1ced	0.5434101
221	0x3ed5c1d5	0.41749445
222	0xbf9e012d	-1.2344109
223	0xbf895072	-1.0727675
224	0x3ef834bd	0.48477736
225	0x3f271852	0.65271485
226	0x3eb1d58b	0.34733233
227	0xc0029314	-2.040227
228	0x3ea2eb98	0.3182037
229	0xbf4dc738	-0.8038211
230	0xc08b9b2a	-4.362691
231	0x3f129581	0.57259375
232	0x3e84263b	0.25810418
233	0xbeaac994	-0.33356917
234	0xbec94f7f	-0.39318463
235	0x3e1a0bed	0.15043612
236	0x3f302b8d	0.68816453
237	0x3e8e9945	0.2785131
238	0x3ebf68cc	0.3738464
239	0x3bf5f72a	0.007506271
240	0xbf69c149	-0.91310555
241	0x3d3da8d0	0.04630357
242	0xbf2f05f6	-0.6836847
243	0x3f5cca5d	0.8624628
244	0xbfd25224	-1.6431317
245	0xbf02fd82	-0.5116807
246	0xbd2f0b52	-0.042735405
247	0xbdee551e	-0.116373286
248	0xbf9d76eb	-1.2301916
249	0xbe1f9f97	-0.15588222
250	0xbe192a2f	-0.14957498
251	0xbf014f0d	-0.50511247
252	0x3e9fad60	0.31186962
253	0xbea5e064	-0.3239776
254	0xbe2b9307	-0.16755305
255	0xbf2307e8	-0.6368394

linear_relu_stack.0.bias f4 [100]
0	0x3df3bd6c	0.11901364
1	0xbd58ec9b	-0.05296002
2	0x3b6e8067	0.0036392452
3	0xbdedffd0	-0.11621058
4	0xbdef4a00	-0.11684036
5	0xbebf5885	-0.37372223
6	0xbe2c0253	-0.16797762
7	0xbf018e03	-0.5060732
8	0x3ecbca45	0.39802757
9	0x3dd34ae9	0.10317022
10	0xbe552c47	-0.20817672
11	0xbdbda547	-0.0926004
12	0xbe832b82	-0.2561913
13	0xbeaad942	-0.3336888
14	0x3cb68ab0	0.022282928
15	0xbe8002f3	-0.2500225
16	0xbdc933a6	-0.09824304
17	0xbe0d69fe	-0.13809964
18	0xbe17c9ae	-0.14823028
19	0xbe4312b6	-0.19050106
20	0xbdff36a5	-0.124615945
21	0xbdffc91c	-0.124895304
22	0x3dc739ca	0.09727819
23	0xbc6a278d	-0.014291656
24	0xbdacbc8c	-0.084344
25	0xbe66e3a3	-0.22547774
26	0xbd93ac6e	-0.07210623
27	0xbe855920	-0.2604456
28	0x3df93aab	0.12169393
29	0x3dc241d4	0.09485212
30	0x3d156208	0.036470443
31	0xbe699702	-0.22811511
32	0xbbd45779	-0.006480154
33	0xbd42bfd9	-0.04754624
34	0xbd2312ff	-0.039813038
35	0xbd9cddd1	-0.076594956
36	0xbeb61e42	-0.3556996
37	0xbe86fb6f	-0.26363704
38	0xbed35b55	-0.41280618
39	0xbe86d028	-0.26330686
40	0x3c0f9ecb	0.008765887
41	0x3ec61088	0.38684487
42	0xbc0f64f8	-0.0087521
43	0xbf08467a	-0.5323254
44	0xbe5fe16b	-0.21863334
45	0x3dc89fe5	0.097961225
46	0xbe3d110b	-0.18463533
47	0x3b9e1a27	0.004824895
48	0xbe899b21	-0.26876166
49	0xbd91ad51	-0.071131356
50	0xbe4e7d53	-0.20164995
51	0xbe0e3b67	-0.13889848
52	0x3c34fb45	0.011046235
53	0xbd8dd99d	-0.06926272
54	0x3e16181e	0.14657637
55	0xbe20ee78	-0.15715969
56	0xbd09ff00	-0.033690453
57	0x3e29eea7	0.16594945
58	0xbdc25b18	-0.09490031
59	0x3c0a5983	0.008444193
60	0x3dc0a84c	0.094071
61	0xbe49e18e	-0.19714949
62	0xbcbbe0ef	-0.022934405
63	0xbe89237d	-0.26784888
64	0xbdb32a58	-0.08748311
65	0xbe90f151	-0.2830911
66	0xbeaed67e	-0.3414802
67	0x3b9a65ab	0.004711827
68	0xbead1282	-0.33803183
69	0xbeafe8b5	-0.3435723
70	0xbcfc7f10	-0.030822307
71	0xbe35b892	-0.17746189
72	0xbeacb601	-0.33732608
73	0xbe09521d	-0.1341023
74	0xbde0f3ae	-0.10983978
75	0xbe590592	-0.21193531
76	0xbdf0a914	-0.11750999
77	0xbd635398	-0.055499643
78	0xbd92a566	-0.071604535
79	0xbd61bbcb	-0.055110734
80	0xbefc53eb	-0.49282774
81	0x3cd29e77	0.025710328
82	0xbe76496d	-0.24051447
83	0x3dff4157	0.124636345
84	0xbec842cd	-0.39113465
85	0xbea9d1ce	-0.3316788
86	0x3c513e05	0.012771134
87	0xbe9d3a8d	-0.30708733
88	0xbedf080b	-0.43560824
89	0xbe143620	-0.14473772
90	0x3dc6525e	0.09683679
91	0xbec3316f	-0.38123652
92	0xbd6d521f	-0.057939645
93	0xbd931687	-0.07182031
94	0xbe2d9c45	-0.16954143
95	0xbdbcfa65	-0.092274465
96	0xbedb5ccf	-0.42844245
97	0x3d8d2df6	0.06893532
98	0xbe3a57c6	-0.18197545
99	0xbeeef833	-0.46673736

linear_relu_stack.2.weight f4 [20, 100]
0	0x3d827463	0.06369855
1	0x3dbdafe5	0.09262065
2	0x3d40f2e0	0.047106624
3	0xbf19ece7	-0.6012711
4	0x3d6cd7d2	0.05782301
5	0x3ce855f1	0.028361293
6	0xbf308406	-0.6895145
7	0x3e285088	0.1643697
8	0x3f130ae2	0.5743848
9	0x3dc35bd3	0.095389985
10	0x3d3247cb	0.0435255
11	0x3ece9532	0.40348202
12	0x3baafb29	0.005217929
13	0x3f071fe1	0.5278302
14	0xbd33b1ca	-0.043870725
15	0x3d3aa59e	0.0455681
16	0xbeb5fec5	-0.35545936
17	0xbfa80619	-1.3126861
18	0x3ea6e424	0.32595932
19	0xbf36fee8	-0.71482706
20	0xbd22ad5e	-0.039716117
21	0x3d76c8bc	0.06025003
22	0x3d90030d	0.07031832
23	0x3d8ffccd	0.0703064
24	0x3dacde09	0.08440787
25	0xbe758eb5	-0.2398022
26	0x3efe98c0	0.49725914
27	0xbf085828	-0.53259516
28	0xbdd58af8	-0.10426897
29	0xbd2d8d7d	-0.042371262
30	0x3dff30be	0.12460469
31	0xbf7198cb	-0.9437377
32	0x3bf2fbd3	0.0074152737
33	0x3ef9f21f	0.48817536
34	0x3e87903a	0.26477224
35	0x3db788ab	0.08961614
36	0xbe9bc559	-0.30424002
37	0x3db4a652	0.088207856
38	0xbe6fd69a	-0.23421708
39	0x3d1bfe3d	0.038084257
40	0x3e18dffd	0.14929195
41	0x3e90864a	0.28227454
42	0x3e2ac40f	0.16676353
43	0x3eb73899	0.35785368
44	0x3f0d3958	0.55165625
45	0x3f6fc808	0.936646
46	0xbd893702	-0.06699945
47	0x3e237a29	0.15964569
48	0xbf1b9289	-0.6077047
49	0x3d27bc28	0.040950924
50	0x3e407551	0.18794753
51	0xbc3cf16a	-0.011532167
52	0x3c703bc1	0.014662684
53	0x3d984899	0.07435722
54	0xbc0ac527	-0.008469856
55	0x3d304818	0.043037504
56	0x3dd39a71	0.10332192
57	0x3d843400	0.06455231
58	0x3f820cf7	1.0160207
59	0x3d3fa3a2	0.04678691
60	0x3de2af18	0.11068553
61	0x3f04224f	0.5161485
62	0xbd01a891	-0.031654898
63	0xbf4fe1bf	-0.81203836
64	0xbf1ce269	-0.61282974
65	0x3da2b048	0.07943779
66	0xbe8e5480	-0.27798843
67	0xbdc5f060	-0.096649885
68	0x3df89c37	0.121391706
69	0xbf3add09	-0.7299352
70	0x3ca18e92	0.019721303
71	0xbdabe6e5	-0.08393649
72	0x3cc01e39	0.023451911
73	0x3eb7b1f4	0.35877955
74	0xbc9fbf91	-0.019500526
75	0x3e4bdda8	0.19908774
76	0x3d811bab	0.06304105
77	0xbd80f673	-0.062970065
78	0xbd181a0d	-0.03713422
79	0x3d61d2c1	0.05513263
80	0x3e3ffed9	0.1874956
81	0x3e85f462	0.26163012
82	0xbd09cdbd	-0.033643473
83	0xbd5273be	-0.05137991
84	0xbeb20bd4	-0.3477465
85	0x3f3728b7	0.715465
86	0xbda216ef	-0.079145305
87	0x3e131dd1	0.14366843
88	0xbee89853	-0.45428714
89	0xbeae90e8	-0.3409493
90	0x3d241065	0.040054698
91	0xbd9d2680	-0.07673359
92	0xbd208c63	-0.039196383
93	0x3e5d8ed0	0.2163651
94	0xbfbd81e2	-1.4805262
95	0xbe84dfab	-0.25951895
96	0x3f3c80ce	0.7363404
97	0x3febadfe	1.8412473
98	0x3c28cb99	0.010302448
99	0x3f736e35	0.9509004
100	0x3d616195	0.055024702
101	0xbd907133	-0.07052841
102	0xbd91fedb	-0.07128688
103	0xbf23b891	-0.639535
104	0x3d51781e	0.051139943
105	0x3b8f1169	0.004366089
106	0x3cd5b17e	0.026085611
107	0xbd8b61dc	-0.068057746
108	0x3f04249c	0.5161836
109	0x3d7be789	0.061500106
110	0xbc6b0955	-0.014345487
111	0x3f0edf4d	0.5580948
112	0x3ea3ff0b	0.3203052
113	0x3f12df00	0.5737152
114	0x3dec5f97	0.1154167
115	0xbcac1466	-0.02100582
116	0xbed5a489	-0.41727093
117	0xbf9c5e93	-1.2216362
118	0x3faa0717	1.3283414
119	0xbf35ac4b	-0.70966023
120	0xbd7f56ad	-0.06233852
121	0x3d090f4f	0.033461865
122	0xbdbebeb5	-0.09313718
123	0xbc0bdbf4	-0.008536328
124	0xbe4b523b	-0.19855587
125	0xbe383010	-0.17987084
126	0x3e547d01	0.2075081
127	0xbf6a27e8	-0.9146714
128	0xbf037bad	-0.5136059
129	0xbe3762cf	-0.17908786
130	0x3ded1fb0	0.115783095
131	0xbf8843fe	-1.064575
132	0x3d815231	0.06314505
133	0x3f34c6de	0.7061595
134	0x3db8f515	0.09031121
135	0xbc9a6f93	-0.01885203
136	0xbea899a9	-0.32929733
137	0xbc93cb47	-0.018041266
138	0xbd6e3d0a	-0.05816368
139	0xbd7e4c73	-0.062084626
140	0x3e3af931	0.18259121
141	0x3e57bfa3	0.21069197
142	0x3e949d73	0.29026374
143	0x3e76ec18	0.241135
144	0x3eff1c3b	0.49826226
145	0x3f30eab6	0.6910814
146	0xbd29f894	-0.04149683
147	0x3d82b02f	0.063812606
148	0xbf091fb9	-0.5356403
149	0x3d6312a2	0.05543769
150	0x3e68c413	0.22731046
151	0xbe6a02d3	-0.2285264
152	0x3d7063cd	0.058688927
153	0xbd233aeb	-0.03985111
154	0x3d4e020d	0.050294925
155	0xbd80f7cc	-0.062972635
156	0xbd45dec2	-0.04830814
157	0x3d19b145	0.037522573
158	0x3f8960f2	1.073271
159	0x3dced634	0.1009945
160	0x3da993c1	0.08280135
161	0x3ec57064	0.3856231
162	0xbd87750f	-0.06614124
163	0xbf6fafeb	-0.93627805
164	0xbe34f1f3	-0.17670421
165	0x3db12b21	0.08650804
166	0xbd7b89de	-0.061410777
167	0xbf17f73e	-0.59361637
168	0x3de168c3	0.1100631
169	0xbf29f064	-0.6638243
170	0x3c95a886	0.018268835
171	0xbefc2555	-0.49247232
172	0x3daad258	0.08340901
173	0x3e4c2f56	0.19939932
174	0x3c7e9004	0.015537266
175	0x3e37f669	0.17965092
176	0x3e8d1b87	0.27560064
177	0xb9abf322	-0.0003279681
178	0xbc375b67	-0.011191226
179	0x3de58c67	0.1120842
180	0x3e1bfb11	0.15232493
181	0x3e0f0f66	0.13970718
182	0x3cfd06a0	0.030886948
183	0xbccf1ccb	-0.025282284
184	0xbea9d6e3	-0.33171758
185	0x3edacc86	0.42734164
186	0xbc39f0e6	-0.011348939
187	0x3ddd9d21	0.108209856
188	0x3e38648b	0.18007104
189	0xbe0ba801	-0.13638307
190	0x3cc64b04	0.024205692
191	0x3e5a91e0	0.2134471
192	0x3c9fc0b9	0.019501077
193	0x3d857494	0.06516376
194	0xbfac6a61	-1.3469964
195	0xbe8138e3	-0.25238714
196	0x3f62c3e6	0.8858017
197	0x40078e31	2.1180537
198	0xbc7cf8a7	-0.015440143
199	0x3f7a54f0	0.97785854
200	0x3d088af0	0.033335626
201	0xbc58a1f3	-0.013222205
202	0xbd8ac197	-0.067752056
203	0xbf1f7124	-0.62282014
204	0x3d08d16d	0.03340285
205	0x3e03d1d0	0.12873006
206	0xbe1821ba	-0.14856616
207	0xbdf3db0a	-0.11907013
208	0x3f472729	0.7779413
209	0x3db5bd7f	0.08874034
210	0x3d1ba26d	0.0379967
211	0x3f0fb35d	0.5613306
212	0xbe9c58e9	-0.30536583
213	0x3d9b23bc	0.07575175
214	0x3df3c55f	0.1190288
215	0x3c9b193d	0.018932933
216	0xbf200002	-0.6250001
217	0xbfa94412	-1.3223898
218	0x3e9ea46b	0.30984816
219	0xbf060779	-0.5235515
220	0xbd374da7	-0.04475179
221	0xbd91f3a5	-0.0712655
222	0xbb6c2771	-0.003603425
223	0xbc500485	-0.01269639
224	0xbc752742	-0.014962973
225	0xbe96f380	-0.2948265
226	0x3f05bd7c	0.52242255
227	0xbf4c1ef4	-0.7973473
228	0xbef57187	-0.47938177
229	0x3e64cabc	0.22342962
230	0x3b8c9682	0.004290403
231	0xbfa1ec11	-1.2650167
232	0x3cf9d863	0.030498689
233	0x3ea26e70	0.31724882
234	0x3e7cfa62	0.24704888
235	0x3d04b5ea	0.03240005
236	0xbf11b1ee	-0.56912124
237	0xbd63cd58	-0.055615753
238	0x3d462c09	0.04838184
239	0xbbe9231a	-0.00711478
240	0x3d8b4a55	0.06801287
241	0x3e983782	0.2972985
242	0x3db19898	0.08671683
243	0xbb265c94	-0.002538477
244	0x3f2196f1	0.63120943
245	0x3f5fab60	0.8737087
246	0xbeaa58e2	-0.33270937
247	0x3d4e8542	0.050420053
248	0xbf01fd67	-0.50777286
249	0x3e24a5ee	0.16078922
250	0xbcccdce8	-0.02500768
251	0xbc73748d	-0.014859331
252	0xbd99fc5a	-0.07518835
253	0x3d10a8af	0.03531712
254	0xbd2cbf47	-0.042174604
255	0xbd4d0d9e	-0.050061814

linear_relu_stack.2.bias f4 [20]
0	0x3da5f4b9	0.08103318
1	0x3e500bf3	0.20317058
2	0x3d8f3cd5	0.06994025
3	0x3d97d1a8	0.07413036
4	0xbecb7274	-0.39735758
5	0x3db672d4	0.089086205
6	0x3e99a6cf	0.30010077
7	0x3eb2d8e0	0.34931087
8	0x3e4b0069	0.19824375
9	0x3e81b7be	0.25335497
10	0x3dffa04e	0.124817476
11	0xbe5c936b	-0.2154061
12	0x3e1edd13	0.1551402
13	0x3eb6ac80	0.35678482
14	0x3ea595a1	0.3234072
15	0x3e769623	0.2408071
16	0x3e8d44dc	0.27591598
17	0xbde2850f	-0.11060535
18	0xbe0f2745	-0.13979824
19	0x3e206cd3	0.15666513

linear_relu_stack.4.weight f4 [2, 20]
0	0xbeacd69e	-0.3375749
1	0xbe86d14e	-0.26331562
2	0xbe7f046e	-0.24904034
3	0xbf66a503	-0.9009554
4	0x3d83da39	0.06438107
5	0xbf3f4e70	-0.7472906
6	0x3ec64dd2	0.38731247
7	0x3f5bdc19	0.8588272
8	0x3eef240a	0.46707183
9	0x3f909a84	1.1297154
10	0xbf734f3c	-0.9504278
11	0x3d1ce338	0.03830263
12	0xbf16cc09	-0.5890508
13	0x3f0907d6	0.5352758
14	0xbf44cac2	-0.76871884
15	0x3f2f2c8a	0.68427336
16	0xbf3d1c36	-0.7387117
17	0x3e1f0c92	0.15532139
18	0xbdb9de97	-0.09075659
19	0xbf13a4d9	-0.5767341
20	0x3f0abb7d	0.54192334
21	0x3edd497c	0.43220127
22	0x3ea58afb	0.32332596
23	0x3f67a7ac	0.9049022
24	0x3c761924	0.015020642
25	0x3f632ab3	0.8873703
26	0xbf1fba1c	-0.62393355
27	0xbf5596aa	-0.8343302
28	0xbf00437c	-0.50102973
29	0xbf8059fe	-1.0027463
30	0x3f6aeacf	0.9176454
31	0x3d9f27e5	0.07771281
32	0x3f3b6747	0.73204464
33	0xbf048130	-0.51759624
34	0x3f2a03ca	0.6641203
35	0xbf270276	-0.6523813
36	0x3edab090	0.42712831
37	0x3d558b85	0.05213501
38	0xbddedc72	-0.1088189
39	0x3f25158e	0.64486015

linear_relu_stack.4.bias f4 [2]
0	0xbe32443c	-0.17408842
1	0x3c1cdf0b	0.009574662
